…
=3072, learning_rate=0.01, log_interval=100, loss_function='CROSSENTROPY', lr_decay='STEP', lr_interval=30000, lr_scale=0.2, method='PMF', momentum=0.95, nesterov=False, num_epochs=500, num_iters=100000, optimizer='ADAM', output_dim=100, pr_interval=100, pretrained_model='', quant_levels=2, resume='', rounding='ARGMAX', save_dir='./out/CIFAR100/VGG16BinaryConnect/PMF/2021-01-24_17-30-23', save_name='./out/CIFAR100/VGG16BinaryConnect/PMF/2021-01-24_17-30-23/best_model.pth.tar', val_set='TRAIN', weight_decay=0.0001)
2021-01-24 17:30:34 - INFO - VGG16BinaryConnect(
  (conv1): SConv2d(
    (conv2d): Conv2d(3, 256, kernel_size=(3, 3), stride=(1, 1), padding=(1, 1), bias=False)
  )
  (bn1): BatchNorm2d(128, eps=1e-05, momentum=0.2, affine=False, track_running_stats=True)
  (conv2): SConv2d(
    (conv2d): Conv2d(128, 256, kernel_size=(3, 3), stride=(1, 1), padding=(1, 1), bias=False)
  )
  (bn2): BatchNorm2d(128, eps=1e-05, momentum=0.2, affine=False, track_running_stats=True)
  (conv3): SConv2d(
    (conv2d): Conv2d(128, 512, kernel_size=(3, 3), stride=(1, 1), padding=(1, 1), bias=False)
  )
  (bn3): BatchNorm2d(256, eps=1e-05, momentum=0.2, affine=False, track_running_stats=True)
  (conv4): SConv2d(
    (conv2d): Conv2d(256, 512, kernel_size=(3, 3), stride=(1, 1), padding=(1, 1), bias=False)
  )
  (bn4): BatchNorm2d(256, eps=1e-05, momentum=0.2, affine=False, track_running_stats=True)
  (conv5): SConv2d(
    (conv2d): Conv2d(256, 1024, kernel_size=(3, 3), stride=(1, 1), padding=(1, 1), bias=False)
  )
  (bn5): BatchNorm2d(512, eps=1e-05, momentum=0.2, affine=False, track_running_stats=True)
  (conv6): SConv2d(
    (conv2d): Conv2d(512, 1024, kernel_size=(3, 3), stride=(1, 1), padding=(1, 1), bias=False)
  )
  (bn6): BatchNorm2d(512, eps=1e-05, momentum=0.2, affine=False, track_running_stats=True)
  (fc1): SLinear(
    (linear): Linear(in_features=8192, out_features=2048, bias=False)
  )
  (bn7): BatchNorm1d(1024, eps=1e-05, momentum=0.1, affine=False, track_running_stats=True)
  (fc2): SLinear(
    (linear): Linear(in_features=1024, out_features=2048, bias=False)
  )
  (bn8): BatchNorm1d(1024, eps=1e-05, momentum=0.1, affine=False, track_running_stats=True)
  (fc3): SLinear(
    (linear): Linear(in_features=1024, out_features=200, bias=False)
  )
  (bn9): BatchNorm1d(100, eps=1e-05, momentum=0.1, affine=False, track_running_stats=True)
)
2021-01-24 17:30:34 - INFO - Number of parameters: 28228352
2021-01-24 17:30:34 - INFO - Training...
2021-01-24 17:30:40 - INFO - Epoch: 0,	 Iter: 0,	 Loss: 5.09068,	 Val-Acc1: 0.94 (Best: 0.94),	 Val-Acc5: 4.42
2021-01-24 17:30:40 - INFO - lr: 0.002
2021-01-24 17:30:58 - INFO - Epoch: 0,	 Iter: 100,	 Loss: 4.26242,	 Val-Acc1: 1.58 (Best: 1.58),	 Val-Acc5: 5.46
…
