…
dim=3072, learning_rate=0.01, log_interval=100, loss_function='CROSSENTROPY', lr_decay='STEP', lr_interval=30000, lr_scale=0.2, method='PMF', momentum=0.95, nesterov=False, num_epochs=500, num_iters=100000, optimizer='ADAM', output_dim=10, pr_interval=100, pretrained_model='', quant_levels=2, resume='', rounding='ARGMAX', save_dir='./out/CIFAR10/VGG16BinaryConnect/PMF/2021-01-24_13-43-24', save_name='./out/CIFAR10/VGG16BinaryConnect/PMF/2021-01-24_13-43-24/best_model.pth.tar', val_set='TRAIN', weight_decay=0.0001)
2021-01-24 13:43:35 - INFO - VGG16BinaryConnect(
  (conv1): SConv2d(
    (conv2d): Conv2d(3, 256, kernel_size=(3, 3), stride=(1, 1), padding=(1, 1), bias=False)
  )
  (bn1): BatchNorm2d(128, eps=1e-05, momentum=0.2, affine=False, track_running_stats=True)
  (conv2): SConv2d(
    (conv2d): Conv2d(128, 256, kernel_size=(3, 3), stride=(1, 1), padding=(1, 1), bias=False)
  )
  (bn2): BatchNorm2d(128, eps=1e-05, momentum=0.2, affine=False, track_running_stats=True)
  (conv3): SConv2d(
    (conv2d): Conv2d(128, 512, kernel_size=(3, 3), stride=(1, 1), padding=(1, 1), bias=False)
  )
  (bn3): BatchNorm2d(256, eps=1e-05, momentum=0.2, affine=False, track_running_stats=True)
  (conv4): SConv2d(
    (conv2d): Conv2d(256, 512, kernel_size=(3, 3), stride=(1, 1), padding=(1, 1), bias=False)
  )
  (bn4): BatchNorm2d(256, eps=1e-05, momentum=0.2, affine=False, track_running_stats=True)
  (conv5): SConv2d(
    (conv2d): Conv2d(256, 1024, kernel_size=(3, 3), stride=(1, 1), padding=(1, 1), bias=False)
  )
  (bn5): BatchNorm2d(512, eps=1e-05, momentum=0.2, affine=False, track_running_stats=True)
  (conv6): SConv2d(
    (conv2d): Conv2d(512, 1024, kernel_size=(3, 3), stride=(1, 1), padding=(1, 1), bias=False)
  )
  (bn6): BatchNorm2d(512, eps=1e-05, momentum=0.2, affine=False, track_running_stats=True)
  (fc1): SLinear(
    (linear): Linear(in_features=8192, out_features=2048, bias=False)
  )
  (bn7): BatchNorm1d(1024, eps=1e-05, momentum=0.1, affine=False, track_running_stats=True)
  (fc2): SLinear(
    (linear): Linear(in_features=1024, out_features=2048, bias=False)
  )
  (bn8): BatchNorm1d(1024, eps=1e-05, momentum=0.1, affine=False, track_running_stats=True)
  (fc3): SLinear(
    (linear): Linear(in_features=1024, out_features=20, bias=False)
  )
  (bn9): BatchNorm1d(10, eps=1e-05, momentum=0.1, affine=False, track_running_stats=True)
)
2021-01-24 13:43:35 - INFO - Number of parameters: 28044032
2021-01-24 13:43:35 - INFO - Training...
2021-01-24 13:43:40 - INFO - Epoch: 0,	 Iter: 0,	 Loss: 2.65559,	 Val-Acc1: 10.22 (Best: 10.22),	 Val-Acc5: 49.06
2021-01-24 13:43:40 - INFO - lr: 0.002
2021-01-24 13:43:58 - INFO - Epoch: 0,	 Iter: 100,	 Loss: 2.02821,	 Val-Acc1: 10.24 (Best: 10.24),	 Val-Acc5: 52.12
…
