INFO 2021-01-28 06:09:07,949 Code running on cuda:0
INFO 2021-01-28 06:09:08,052 config: {'dataset': 'cifar100', 'input_shape': 3, 'output_shape': 100, 'data_augmentation': True, 'epochs': 500, 'criterion': 'crossentropy', 'validation_split': 0.1, 'lr_scheduler': 'cosine', 'batch_size': 50, 'lr_init': 0.003, 'lr_final': 1e-16, 'batch_affine': False, 'model_architecture': 'VGGBinaryConnect', 'momentum': 0.2, 'grad_clip_value': 1, 'weight_clip_value': 1}
INFO 2021-01-28 06:09:17,574 VGGBinaryConnect(
  (conv1): Conv2d(3, 128, kernel_size=(3, 3), stride=(1, 1), padding=(1, 1), bias=False)
  (bn1): BatchNorm2d(128, eps=1e-05, momentum=0.2, affine=False, track_running_stats=True)
  (conv2): Conv2d(128, 128, kernel_size=(3, 3), stride=(1, 1), padding=(1, 1), bias=False)
  (bn2): BatchNorm2d(128, eps=1e-05, momentum=0.2, affine=False, track_running_stats=True)
  (conv3): Conv2d(128, 256, kernel_size=(3, 3), stride=(1, 1), padding=(1, 1), bias=False)
  (bn3): BatchNorm2d(256, eps=1e-05, momentum=0.2, affine=False, track_running_stats=True)
  (conv4): Conv2d(256, 256, kernel_size=(3, 3), stride=(1, 1), padding=(1, 1), bias=False)
  (bn4): BatchNorm2d(256, eps=1e-05, momentum=0.2, affine=False, track_running_stats=True)
  (conv5): Conv2d(256, 512, kernel_size=(3, 3), stride=(1, 1), padding=(1, 1), bias=False)
  (bn5): BatchNorm2d(512, eps=1e-05, momentum=0.2, affine=False, track_running_stats=True)
  (conv6): Conv2d(512, 512, kernel_size=(3, 3), stride=(1, 1), padding=(1, 1), bias=False)
  (bn6): BatchNorm2d(512, eps=1e-05, momentum=0.2, affine=False, track_running_stats=True)
  (fc1): Linear(in_features=8192, out_features=1024, bias=False)
  (bn7): BatchNorm1d(1024, eps=1e-05, momentum=0.1, affine=False, track_running_stats=True)
  (fc2): Linear(in_features=1024, out_features=1024, bias=False)
  (bn8): BatchNorm1d(1024, eps=1e-05, momentum=0.1, affine=False, track_running_stats=True)
  (fc3): Linear(in_features=1024, out_features=100, bias=False)
  (bn9): BatchNorm1d(100, eps=1e-05, momentum=0.1, affine=False, track_running_stats=True)
)
INFO 2021-01-28 06:09:17,574 Starting training with Full-Precision optimizer...
INFO 2021-01-28 06:09:17,575 Criterion: CrossEntropyLoss()
INFO 2021-01-28 06:09:17,575 Optimizer: Adam (
Parameter Group 0
    amsgrad: False
    betas: (0.9, 0.999)
    eps: 1e-08
    initial_lr: 0.003
    lr: 0.003
    weight_decay: 0
)
INFO 2021-01-28 06:09:17,575 starting epoch 0
…
